data/embeddings/b64af7ec20bad05640765d7b69b97ccc.npy (npy, 483456 bytes, 1 tensors)

array f4 [118, 1024]
0.026229415 -0.018033592 0.006902221 -0.008654647 0.0049455585 -0.039142627 -0.005349381 -0.0006271722
0.032326125 0.008436738 0.008981734 0.037356995 0.048846018 -0.0053698374 -0.03666307 -0.024030702
0.04161337 0.016456101 0.0061943075 -0.045298044 -0.04121604 -0.03601988 8.243841e-05 0.0023458917
0.0047790776 -0.0071039326 0.017252449 -0.0466496 -0.011998735 -0.0015043907 -0.01884059 -0.027960354
0.0009948332 0.00738328 0.010171162 -0.007845726 0.042156678 -0.0010797326 0.00043585137 -0.0052611744
-0.053843997 0.013075626 0.023136497 0.0063732173 0.025405418 0.021861702 -0.008500044 -0.018470356
0.021953724 0.03968737 -0.013016069 0.051984284 0.024724226 0.039915077 0.05871089 0.054562427
0.024532037 0.012249972 0.0015829203 -0.01808883 -0.0023096185 0.000990932 -0.027071914 -0.017130347
-0.017695183 0.05227262 -0.028303046 0.013470188 -0.061220217 -0.017590279 0.009522561 -0.042571176
0.023051493 0.06297724 0.02822796 -0.030945811 -0.025439326 -0.051154792 0.0149099715 -0.054949544
0.0014274274 -0.00452538 0.029259287 -0.008320688 -0.017723182 -0.013421615 0.0029613653 -0.013372477
0.0044052433 -0.041333992 0.015288137 -0.010059786 0.0023289882 -0.0026842868 -0.014128856 -0.006277075
0.042602517 0.0027805453 -0.018256655 0.01441241 -0.010736087 -0.009042343 -0.0023328697 -0.018672653
-0.0013806057 0.0025782685 -0.024679422 0.024732856 0.08170746 -0.018824793 -0.0038432002 -0.07225002
-0.030929305 0.05534809 0.077075094 0.012378044 0.01522237 -0.047527626 0.052289683 -0.06343987
0.005071651 -0.014602435 -0.021373995 0.00426775 0.027783684 -0.04408555 0.026648764 -0.040502734
-0.013646461 0.025975544 0.021981766 0.0047379653 0.0011165049 -0.021341179 -0.016631292 0.04008886
-0.080992356 0.014476836 -0.021728165 0.029164826 -0.017505493 -0.0033707088 0.008681405 -0.05253186
0.03437917 0.04729904 0.05062286 -0.034780826 -0.011437047 -0.021416413 0.03682211 -0.05793874
0.0076735727 -0.011099011 -0.00929298 -0.053014856 0.018354764 0.011226723 0.025210781 -0.004719025
-0.059560962 -0.013167724 -0.01789982 0.010318598 -0.011882501 0.005116329 -0.02773957 -0.0123670455
-0.010505535 -0.029895492 -0.0068588685 0.013741322 0.071610376 -0.03700689 0.014470489 -0.018482404
-0.016955543 -0.01082615 0.076148815 -0.036705352 -0.020646978 0.023788234 0.011232246 0.030365052
-0.014719445 -0.025938574 0.04095872 0.00025830866 -0.007708753 0.12809476 0.012870311 -0.050077096
-0.0129061565 -0.011311103 0.0067779184 -0.0010499916 -0.01094764 -0.048847407 0.008893699 0.049047932
0.003855843 0.04750925 -0.031905256 0.051523138 0.029564224 -0.0124407215 0.04201203 -0.016027642
0.009616224 -0.025188029 0.0053280354 0.014216267 -0.014637494 -0.020809306 -0.023133524 -0.053902153
-0.052377075 -0.0014524683 0.0047286903 0.01998685 0.0070070275 -0.00852244 0.031046329 -0.04020882
-0.018314522 0.012122909 0.009368795 -0.009960695 0.019855091 -0.029838167 0.062224362 0.025955295
-0.04865754 -0.0047111996 0.016163778 -0.052464873 0.025239682 0.01308324 -0.011244861 -0.030748831
-0.012708897 0.030664911 0.013036831 0.0010140414 -0.015151936 0.01984473 0.0026487869 0.043201886
0.013619047 0.10041165 -0.02324867 -0.039077803 0.004853986 0.040467344 0.012832244 -0.0322748
00000000: 12df d63c 2fbb 93bc 072c e23b 38cc 0dbc
00000010: 5a0e a23b 0554 20bd dc49 afbb d068 24ba
00000020: 6668 043d 3e3a 0a3c 1f28 133c a603 193d
00000030: c312 483d 76f5 afbb 042c 16bd 09dc c4bc
00000040: c872 2a3d f2ce 863c 9ef9 ca3b 718a 39bd
00000050: 26d2 28bd 9589 13bd c9e2 ac38 88bd 193b
00000060: cf99 9c3b 1bc8 e8bb 0255 8d3c a713 3fbd
00000070: 5896 44bc fa2e c5ba 9557 9abc 1d0d e5bc
00000080: 1065 823a 71ef f13b f2a4 263c 5c8b 00bc
00000090: 7bac 2c3d d085 8dba fb82 e439 ee65 acbb
000000a0: 868b 5cbd 273b 563c c088 bd3c 6cd6 d03b
000000b0: 061f d03c 5017 b33c c543 0bbc 254f 97bc
000000c0: 4cd8 b33c 398f 223d 5a41 55bc 79ed 543d
000000d0: 768a ca3c fe7d 233d d57a 703d da7c 5f3d
000000e0: 69f7 c83c 1bb4 483c fe79 cf3a 072f 94bc
000000f0: f85c 17bb 29e2 813a ebc5 ddbc f154 8cbc
00000100: 7df5 90bc d11b 563d cadb e7bc 10b2 5c3c
00000110: 0dc2 7abd 7d19 90bc 8404 1c3c 1d5f 2ebd
00000120: 7cd6 bc3c 36fa 803d 533e e73c 1282 fdbc
00000130: 2266 d0bc b087 51bd f448 743c c612 61bd
00000140: 8418 bb3a a449 94bb 2cb1 ef3c 7f53 08bc
00000150: 3530 91bc 55e6 5bbc 7713 423b 3c18 5bbc
00000160: dc59 903b d54d 29bd 187b 7a3c cdd1 24bc
00000170: f0a1 183b dcea 2fbb b87c 67bc ecaf cdbb
00000180: fa7f 2e3d cf39 363b fb8e 95bc 0722 6c3c
00000190: 6ae6 2fbc 5626 14bc 0fe3 18bb 64f7 98bc
000001a0: 71f5 b4ba 2bf8 283b 802c cabc 8f9c ca3c
000001b0: 3e56 a73d 7436 9abc 33de 7bbb d2f7 93bd
000001c0: 745f fdbc aeb4 623d 8cd9 9d3d 48cd 4a3c
000001d0: 3f67 793c 54ac 42bd b52d 563d c3ec 81bd
000001e0: 1830 a63b 0d3f 6fbc 8418 afbc 7bd8 8b3b
000001f0: 9c9a e33c 0d93 34bd 824e da3c 32e6 25bd
00000200: 6895 5fbc aaca d43c 1b13 b43c ef40 9b3b
00000210: b057 923a b2d3 aebc 593e 88bc 3734 243d
00000220: 52df a5bd 4030 6d3c 44ff b1bc 13eb ee3c
00000230: ae67 8fbc 1ce7 5cbb 743c 0e3c a62b 57bd
00000240: 2cd1 0c3d a3bc 413d eb59 4f3d 5776 0ebd
00000250: 7462 3bbc 7971 afbc c8d2 163d 2c51 6dbd
00000260: 9872 fb3b a0d8 35bc 9541 18bc 1b26 59bd
00000270: bb5c 963c 4af0 373c d786 ce3c 0da2 9abb
00000280: 32f6 73bd 70bd 57bc a5a2 92bc 560f 293c
00000290: d2ae 42bc e1a6 a73b 183e e3bc 269f 4abc
000002a0: 681f 2cbc 64e7 f4bc 5cc0 e0bb 4823 613c
000002b0: 76a8 923d 8994 17bd a115 6d3c 6968 97bc
000002c0: 5ae6 8abc 2a60 31bc e9f3 9b3d 5a58 16bd
000002d0: da23 a9bc 8bdf c23c 7407 383c 21c0 f83c
000002e0: d429 71bc 227d d4bc 55c4 273d 9a6d 8739
000002f0: b599 fcbb 462b 033e ffdd 523c a41d 4dbd
00000300: 5874 53bc 3452 39bc 4d19 de3b df9f 89ba
00000310: bb5d 33bc 3814 48bd e1b6 113c 7ce6 483d
00000320: 50b2 7c3b 0f99 423d 16af 02bd ed09 533d
00000330: ac30 f23c 2bd4 4bbc ce14 2c3d 674c 83bc
00000340: 5e8d 1d3c 2057 cebc cd96 ae3b 58eb 683c
00000350: 1ad2 6fbc 4778 aabc 8482 bdbc 81c8 5cbd
00000360: 5889 56bd c060 beba 21f3 9a3b 76bb a33c
00000370: 359b e53b b4a1 0bbc df54 fe3c 01b2 24bd
00000380: 5608 96bc 2a9f 463c 937f 193c 2f32 23bc
00000390: 25a7 a23c 2c6f f4bc f9de 7e3d 33a0 d43c
000003a0: 214d 47bd 6860 9abb e669 843c 68e5 56bd
000003b0: 73c3 ce3c 165b 563c 5e3c 38bc f9e4 fbbc
000003c0: fa38 50bc fb34 fb3c 6f98 553c 95e9 843a
000003d0: d33f 78bc 6a91 a23c 4597 2d3b 76f4 303d
000003e0: 6c22 5f3c a0a4 cd3d ff73 bebc 0c10 20bd
000003f0: 300e 9f3b 16c1 253d 553e 523c 9532 04bd
